model_saved/olympics-curling/ppo/run1/trained_model/actor_1000.pth (torch, 241503 bytes, 4 tensors)

linear_in.weight f4 [64, 900]
00000000: 567a 813d adda 7b3d 4cf9 3e3d 1a70 ec3d
00000010: 7877 6a3c 47b1 04bd d062 dbba 6d3b 543d
00000020: 7d19 db3d cdbc 5c3d eaa1 c23c eb9c 8f3d
00000030: 88ef 8e3c 066b 643d 17ab 4e3d b98b 0c3d
00000040: 3f59 6abd 2a26 8cb8 38d7 9d3d acba 273d
00000050: b171 9a3d 59ed 4bbc 07b8 9d3b 5338 7dbc
00000060: d1b9 593d f0c2 043e 9816 da3d c93c d63d
00000070: 3c5f 3c3d 1f4b 203d f23c f43c 096c b03d
00000080: c31f b93d 069a 523b 0a48 92bd 0914 75bd
00000090: 3150 25bd b4ad 673c 9d24 b73d ed7b 233d
000000a0: de2f d43d eaa7 993d 1977 fd3d 5454 823c
000000b0: 1750 b43c 862c b6bc 6958 e9bd 1e1d 82bb
000000c0: 5efa 273c f18d 123d 3a28 41bd 4e40 4e3d
000000d0: 1e5e 493d 294d 203b ea0d 173d f628 023e
000000e0: 943c 923d f83a 773d f985 a43d 3a66 49bc
000000f0: 936b f4bb 5f71 083d be97 413d 9b6b 913d
00000100: d58e 84bd 5036 6ebd 1d08 57bd 1b12 36bd
00000110: 0613 34bc cf2a 023d ef1c d33d 076c 513d
00000120: 901a aa3d 2167 d13c f237 e33b 132c 8dbd
00000130: d9c5 04bd d118 ecba 1f0e 8b3d e4a1 083d
00000140: 111e 0f3d a1ba 80bb d406 753d 782a 81bd
00000150: f5d7 6bbc 08cb 403d 4773 2e3d c9ef 913d
00000160: 32fb 653d 12aa 853c d5ff 333d 0e51 843c
00000170: d786 b13c 501f 1dbd 59ff f0bd f09c ddbc
00000180: b592 d93b 2509 cebb 7e90 78bd 1279 a3bc
00000190: 54aa ac3d 93bd 793d bde5 923d de7e cb3d
000001a0: 7f1e fdbc 5030 25bd b4f5 133c cf46 243a
000001b0: 81d9 ef3d 4964 803d 1e05 8a3c 5246 ca3c
000001c0: 663f b53d 4c62 37bd 07df 46bc 4d13 5d3d
000001d0: 6fca b43d e930 b73d 1538 dd3c 174c 10bd
000001e0: 8a47 3f3c 40f7 9c3d 95a9 a13d aa1d aebd
000001f0: 50a9 40bd ad1b 10bd db0c 1fba 7546 09bc
00000200: b453 08bd 1751 20bc e078 393c 79ff 3a3d
00000210: 2471 8f3d 2c03 883d 0065 db3c aeb4 18bb
00000220: 0ced fd3b c07c b1bd bdf2 efbc 25be a9bc
00000230: 7784 f2b9 14e3 ffbc 820d 37bb 1062 80bc
00000240: e1b5 443c 4aff 733d 5455 933d ae70 083e
00000250: 7898 a83d 29cb 133c 4425 14bd fdbf dc3d
00000260: 6615 203d b1d0 793d b467 a83b 8922 b8bd
00000270: 90a3 d6bc 84fb 81bb ec37 c9bc 8e44 88bd
00000280: 4544 84bd 41d6 323d 0af2 223d ff07 193c
00000290: 2fc8 5dbc 9287 5a3c 0ec9 ab3c cd5c 51bb
000002a0: 244c 60bd 208b babc 95e4 c1bc e0e8 b5b7
000002b0: 245b 06bc 3793 cc3b 8ac4 3c3d 595c cd3c
000002c0: 1fce b43d 3e8a ce3d 1950 113c 9b76 5b3d
000002d0: 6906 18bd dc94 aebc 5555 d33c 1d6b 6f3d
000002e0: f436 f1bc a254 2cbd d36a eabc 932e 8bbc
000002f0: 4355 8cb8 d616 21bd 6cc2 9a3c 5f25 473d
00000300: 22c7 973d 17ff bebc 31af 4fbc ffa9 aabc
00000310: 3469 973c c425 c83c b26a 2b3d d285 d93b
00000320: 8a74 753c a3ea 77bd 39c6 713d 06f8 68bd
00000330: 17f7 003a 5274 203b f67c 44bc 02ec 233d
00000340: 7bbb 813c a056 fb3c ffb8 9ebd 26bf 2b3c
00000350: e4a4 babb ed13 f93c f8d1 3ebd f432 ff3c
00000360: 2f12 563d a8c5 013b 4550 5f3c 62c6 793d
00000370: 1168 d2bb fecf 393d 96ac aabc ce77 8abc
00000380: 8e5e fcbc 20c7 d0bd 5da2 363a 5a9f 773d
00000390: 79c7 ff3b 3893 ca3a 4315 06bd 7662 8cbd
000003a0: baf2 183b a14a 73bd e795 d1bc cce1 0e3d
000003b0: 2c24 c2bb e130 8b3d 1f4a 6239 cffb 4abd
000003c0: 7fe1 0abe 2ed9 4cbd 85a9 033c 710c 62bd
000003d0: ae15 0ebe fc4c 2cbd d094 c1bc 3093 37bd
000003e0: 4dd3 8dbd 262d 32bc cfe5 d93c 9078 e03a
000003f0: 5897 ff3c f0c7 cb3c f28b 42bd 4cab 8fbd
0.06322162 0.061487842 0.046624467 0.11544819 0.01431071 -0.032395627 -0.0016737822 0.051814485
0.10698221 0.053890992 0.023758847 0.070123516 0.017448202 0.055766128 0.050456133 0.034312937
-0.057214018 -6.682829e-05 0.07707065 0.04094951 0.07541216 -0.012446725 0.0048131975 -0.015455323
0.053155724 0.12964988 0.10648841 0.104608126 0.04598926 0.03913414 0.029814217 0.08614356
0.09039261 0.0032135262 -0.071426466 -0.05983356 -0.04035968 0.014140535 0.0894253 0.039913107
0.103606924 0.0750273 0.12376232 0.015909351 0.022010846 -0.022238027 -0.11393816 -0.003970756
0.010252563 0.035779897 -0.047157504 0.050354294 0.049162023 0.0024460054 0.036878504 0.12710938
0.071404606 0.06035897 0.08033366 -0.012292439 -0.007459113 0.033311244 0.047263853 0.07100602
-0.064725555 -0.058157265 -0.05249797 -0.04445086 -0.010990864 0.031779107 0.10308253 0.051128414
0.08305848 0.025561871 0.0069341594 -0.06893172 -0.032415245 -0.0018012767 0.06789803 0.033357516
0.034940783 -0.003928498 0.059820965 -0.063069284 -0.01439475 0.047068626 0.042590406 0.071258135
0.05614776 0.016316447 0.043945152 0.016151931 0.021670742 -0.03835994 -0.11767454 -0.027052373
0.0066398033 -0.006287711 -0.060684673 -0.019955192 0.08430925 0.060971808 0.07172725 0.09936307
-0.03089833 -0.040329278 0.009030748 0.0006266655 0.117114075 0.06269128 0.016848143 0.024691734
0.08849983 -0.044771478 -0.012138135 0.053973485 0.08827674 0.08944876 0.027004281 -0.035228815
0.011674771 0.07664347 0.07893673 -0.08501752 -0.04703647 -0.035182644 -0.0006067284 -0.008378615
-0.03328295 -0.009784958 0.011320323 0.045653794 0.07004002 0.0664123 0.026781559 -0.0023301053
0.0077492055 -0.08666372 -0.029290551 -0.02072055 -0.0004625653 -0.031236209 -0.0027931635 -0.01567176
0.012006254 0.059569634 0.071940094 0.13324234 0.08232206 0.009020605 -0.03616835 0.10778806
0.039082907 0.06099004 0.0051393155 -0.08990962 -0.02620104 -0.0039667506 -0.024562798 -0.06653701
-0.06458334 0.04366136 0.039781608 0.009340285 -0.013536497 0.013337987 0.020969894 -0.0031946183
-0.054760113 -0.022771418 -0.023668567 -2.1685322e-05 -0.008200441 0.0062431353 0.04608587 0.025068449
0.08828377 0.10084961 0.008869194 0.053579908 -0.03711549 -0.021311216 0.025797525 0.05845176
-0.029445149 -0.0420729 -0.02861539 -0.016989982 -6.6916014e-05 -0.03932842 0.018891536 0.048619624
0.074110284 -0.023314996 -0.012676046 -0.020833014 0.018482782 0.02443207 0.0418498 0.006638267
0.014981398 -0.0605265 0.05902693 -0.05687716 0.0004919632 0.0024483395 -0.011992684 0.040019996
0.015836468 0.030680954 -0.07750129 0.010482585 -0.005695926 0.03040501 -0.04658696 0.031152226
0.052263435 0.001980165 0.013629978 0.06098021 -0.006421097 0.045364372 -0.020834249 -0.01690283
-0.030806806 -0.1019423 0.0006966943 0.060454704 0.0078057614 0.0015455252 -0.03273512 -0.068547174
0.0023338036 -0.059397344 -0.025584174 0.034883305 -0.005924722 0.06796432 0.00021580652 -0.04955655
-0.13562582 -0.050011806 0.008036022 -0.055187646 -0.13875458 -0.042065606 -0.02363053 -0.044818103
-0.06925068 -0.010875022 0.02659884 0.0017125774 0.031200096 0.024875611 -0.047496744 -0.07015094

linear_in.bias f4 [64]
00000000: f970 fb3c 2312 eebc d8c7 0e3d db6c a33c
00000010: c2a4 2ebd f354 863d 78cd 9bbd 8440 e03c
00000020: f177 dbbb ccc3 41ba ce58 5d3c aac6 bbbc
00000030: 9d97 0dbd 9c2d 5c3d d4c2 1abc ce22 b7bb
00000040: 777d dabc bd7f a6bc a942 72bd f3ac 17bd
00000050: 9e4a deb9 cf1a 7abd 04a8 4b3c 6e1c 2bbc
00000060: b930 91ba 6321 debc 9841 8e3c ad0e 17bd
00000070: d3aa bdbc 3ce5 c2bc 5cc1 3dbb 94cf 0e3d
00000080: 469a a8bb 7265 0c3d 6726 e6bc 9837 b7ba
00000090: b8a4 40bc c8f0 0b3d fa35 873c 2f33 97bb
000000a0: a727 3aba 19f8 4dbd a39a 6abd e1c2 173d
000000b0: d080 02bd 63e2 d63c 6617 1dbd 999d 3fbd
000000c0: 5f73 1cbd b5fc d23c d43b 35bb 6f1f afbd
000000d0: d794 c1bc c2d0 d23c 975f 1aba 51d2 2dbb
000000e0: 98d0 f539 e45a 1fbc 454d 1abd 9b9c 1f3e
000000f0: 8b59 423d 2161 00bd 3740 81bc 15e3 c93c
0.030693518 -0.029061383 0.034858555 0.019949367 -0.042637594 0.065591715 -0.076075494 0.027374513
-0.0066976477 -0.0007391542 0.013509942 -0.022921879 -0.034568418 0.053754434 -0.009445865 -0.005588866
-0.026671154 -0.020324582 -0.059145603 -0.03703017 -0.00042398734 -0.061060723 0.012430195 -0.01044379
-0.0011077143 -0.02711553 0.017365262 -0.03687923 -0.023152744 -0.023790948 -0.0028954362 0.03486593
-0.005145344 0.034276433 -0.028094484 -0.001397836 -0.011758022 0.034165174 0.01650523 -0.004614256
-0.00071012456 -0.050285432 -0.05727638 0.037051085 -0.031861126 0.026230996 -0.038352393 -0.046781156
-0.038195964 0.025755266 -0.0027654069 -0.08550917 -0.023630543 0.02573431 -0.0005888878 -0.0026523063
0.00046885456 -0.00972626 -0.037671346 0.15587084 0.047448676 -0.03134263 -0.01577769 0.024644414

action_head.weight f4 [36, 64]
00000000: 94c2 153c 19e6 303e ddc4 85bc 271f 7d3c
00000010: 0170 833c 6076 2f3d bd8c 6a3d cbd1 dcbd
00000020: 5a2f 6b3d 9d84 bc3d c9f0 0bbd 0800 783d
00000030: 78a2 313e ffeb 423e 8bd6 013d 482d b3bd
00000040: a0b2 23bc 2e9b fe3d 332f c43d 6570 c73d
00000050: c945 713d edad 013e 8619 1dbd 1602 4c3e
00000060: 9628 7bbd 520a 883d ff54 b93d 43c5 193e
00000070: 8314 653e 4fd8 d9bd 4eb7 443e 5ea0 bbbd
00000080: fc4a d93d 4242 133e 9255 b93d e26e 123e
00000090: df72 3b3d a276 543e 164b 263e 0cce 003d
000000a0: 2906 3d3e d814 d13d 2dc6 47bd 61a6 1d3e
000000b0: aa7b 17bd e7e7 0f3c a01e 3b3e 2537 dd3d
000000c0: f0c2 a43d 4a49 b2bd 64e6 123d 7fad 233c
000000d0: 5999 9b3c a3ce 783a 18f4 e73d cc22 c1bc
000000e0: 979c 223e a64c 543d bdbc ffbc cdff 8c3d
000000f0: c28a dfbd 1517 1e3e a44a 13be 189b dd3d
00000100: 2a03 213e 3875 abbd 6bcf cf3c 02f1 c9bd
00000110: b288 913d b5c2 c5bd 6d02 b93d fa28 723d
00000120: 6c66 193e 2cd2 cf3c 7c4b 8ebd cc8d 25bc
00000130: b022 dc3c 149b dd3d 87fb 40bd f502 d5bc
00000140: 4141 3ebd ef21 613c 84d8 8bbd 20a5 5b3d
00000150: a52c 323e 99bd 403e 3f38 543d 7d2e 3c3e
00000160: d71e 1c3e b627 a93d 3fa9 053e 8857 183e
00000170: 4621 113e cbba dd3d 4367 113e 226b f9bc
00000180: ec42 92bd 8a9d debb 01a4 873e 9584 4b3e
00000190: 12f7 003d c34c 213e b33b 013e 0995 623e
000001a0: ddab d03d d94b 9e3d b9d7 abbd 3f85 2bbd
000001b0: e025 093e fc8e 56bd 67b6 2c3e aed2 953c
000001c0: 0bb7 843d 05ba 0e3e 5f4a 553d 0b78 d83c
000001d0: 97b8 553e 0a87 073e 197a bc3d 46e2 c93d
000001e0: 8b00 e13c ec9c 5f3d 4c5b 433d 21bd 833d
000001f0: fc3d 943d 75ed ca3b 7e32 433e 0dc5 edbd
00000200: 37f2 a7bd 481e 013e 2133 853e d54f 913c
00000210: 5557 143e 99ac d43c eaae b73c 86b0 76bd
00000220: 9295 92bd e1e0 303e a2b7 a73d 73f8 983d
00000230: afa9 9e3d 8fc7 163e 435b 9dbb 1f35 01bd
00000240: 8d2f 033e c658 223d f0ef 613d d9c5 323e
00000250: 5879 4ebc de63 b0ba fc40 573d d27d 23bd
00000260: 43e2 503e 5d3a 5d3d b262 6e3e 2eaf 533e
00000270: 0422 6c3e 0e33 ca3c c61e 293d 28c7 403e
00000280: 5769 463e d733 373e 2f86 2dbd e2bc 17be
00000290: 1b6c 1c3e d999 103e 150f 763e 731c 48bd
000002a0: 9b80 f93c 3962 c93d f14b c73d 0b35 6ebc
000002b0: b460 b6bd 4173 c43d 2733 19be f3f3 d43d
000002c0: 401a 913d 02a7 5f3e 9898 453d 0828 09bd
000002d0: 0ced 643e 44b4 d63c 0e1f 4dbd 45de 163e
000002e0: 33c6 1c3d d4e0 253b 1ba9 0e3e 98e8 853e
000002f0: e3b6 733d e2d2 04bd 24c7 323d 2a36 3e3c
00000300: a261 853d 271b bd3d 4b87 783e 4ad6 03be
00000310: 16eb 613d 58cf 8abd 62bc 23bd d794 373d
00000320: 3620 82ba ae6e 8a3d d6a3 5ebc ecb8 2c3d
00000330: af40 47bd 964c 013e 2dbf 7a3b 8cf8 c03d
00000340: 933c 82bc a89c 013e 2f21 503d 9656 4d3e
00000350: aea3 7a3e a864 4bbd 9332 bc3b b1c8 7f3d
00000360: b2df 2b3e 6ce0 c0bc 3c27 6ebd 4fc8 9c3d
00000370: 3101 dc3d ac0a 68bd 7508 213e c46c f03d
00000380: 2cad 803d 2f1b e73c 6a74 303d 1ca0 053e
00000390: b44f 553e 2c4b 03bd 3155 b13d e745 94bd
000003a0: beea 5d3d b18e de3d 4d37 ee3d 9877 5c3e
000003b0: b566 853c 988c c13c c226 4a3e 4075 153e
000003c0: fe9f 1e3d 8743 583e 2a4c 783e a887 1dbd
000003d0: 7afb 223e d4f0 163e 6e87 803e 71f6 7b3c
000003e0: 4d2d d53d cd71 223e 0b99 343d 774b 483e
000003f0: 0c5c 413d d9a5 dcbd 39f0 703e d208 9dbb
0.009140629 0.17275275 -0.016329223 0.015449322 0.016044619 0.0428375 0.057263125 -0.10782202
0.057418205 0.092049815 -0.034165177 0.060546905 0.17347133 0.19035338 0.031698745 -0.08748871
-0.009991318 0.12431942 0.09579315 0.097382344 0.058904443 0.12664004 -0.03835442 0.1992267
-0.061318003 0.066425934 0.09049415 0.15016656 0.22371106 -0.10636961 0.1921055 -0.09161447
0.10610005 0.14380744 0.09049524 0.14300111 0.045763846 0.2074838 0.1623958 0.0314465
0.18459381 0.10209054 -0.04877298 0.153955 -0.03698317 0.008783317 0.18273401 0.108015336
0.08044994 -0.08705385 0.03586425 0.009990095 0.01899402 0.00094912405 0.11325854 -0.023576163
0.15880047 0.05183091 -0.031217927 0.068847276 -0.10915138 0.15438493 -0.14383942 0.108205974
0.15723863 -0.08371967 0.02536746 -0.09860422 0.07106151 -0.09656278 0.09033666 0.05912111
0.14980477 0.025368772 -0.06947991 -0.010104608 0.026872009 0.108205944 -0.047114875 -0.026002387
-0.04644895 0.013741001 -0.068284065 0.053624272 0.17399843 0.18822326 0.051811453 0.18377109
0.1524614 0.082595274 0.13052844 0.1487714 0.14172849 0.108266436 0.14199547 -0.030446593
-0.071416706 -0.0067936825 0.26492313 0.19874795 0.031485625 0.15751939 0.1262043 0.22127165
0.1018903 0.077293105 -0.08390755 -0.04187512 0.13393354 -0.052382454 0.16866456 0.018288936
0.06480225 0.13938148 0.05207288 0.026424428 0.20871197 0.13235107 0.09202976 0.09857611
0.02746608 0.05459301 0.04769449 0.06432558 0.07238385 0.006192858 0.1906223 -0.1160985
-0.08200496 0.12609208 0.2601557 0.017738262 0.1448644 0.025961207 0.022422273 -0.06022694
-0.071574345 0.17273284 0.08189322 0.07469263 0.07747208 0.14724563 -0.004802139 -0.0315448
0.12811108 0.039635442 0.055160463 0.17458285 -0.012602173 -0.0013457497 0.05255221 -0.039914913
0.20398812 0.054010738 0.23279837 0.20672294 0.23059851 0.024682548 0.041289113 0.18825972
0.19376121 0.17890869 -0.042364296 -0.14818147 0.15275614 0.14121188 0.24029191 -0.048855256
0.030456832 0.098331876 0.097312815 -0.014539014 -0.089051634 0.095922954 -0.1496092 0.10398092
0.07085085 0.21841052 0.048241228 -0.033485442 0.22356051 0.026209004 -0.050078444 0.14733227
0.038274955 0.002531101 0.13931696 0.26154017 0.059500586 -0.032427676 0.043646947 0.011609593
0.065127626 0.092336945 0.2427036 -0.12874714 0.055155836 -0.06777829 -0.039974578 0.04481968
-0.0009927812 0.06759392 -0.013588866 0.042168543 -0.04864567 0.12626871 0.0038260922 0.094224066
-0.015898025 0.12657416 0.050812896 0.20052561 0.24476501 -0.04965654 0.0057433336 0.062447254
0.16784552 -0.023544513 -0.058142886 0.07655393 0.10742415 -0.056650802 0.15725882 0.117394954
0.0628303 0.028211204 0.04307977 0.13049358 0.20831186 -0.03205411 0.08658827 -0.07239895
0.054178946 0.1086706 0.116316415 0.21529996 0.016284326 0.02362661 0.19741347 0.14595509
0.0387268 0.2111951 0.24247804 -0.03845945 0.15916243 0.14740306 0.25103325 0.01537858
0.10409031 0.15863724 0.044091266 0.19560038 0.047206923 -0.107738204 0.23529138 -0.004792311

action_head.bias f4 [36]
00000000: e0bd de3d 6ec0 e43c 2853 4c3d d411 203d
00000010: 2f17 d93d a175 2dbd 1693 1cbd 63af 353e
00000020: 4505 363b 5f17 753d a64d 1ebd 1abd 08bd
00000030: ef91 313c c8bf 02bc 6291 843d 1a94 21bd
00000040: d1f0 153e d485 393e f78d b13c 4219 773d
00000050: 8c06 96bc 1048 053d 015d bab8 ac83 4f3e
00000060: a8fe 373d 87bc bc3d b483 2b3e 73d3 313e
00000070: d96b b4bc be9f 483e 2e5c 283e 460a 353e
00000080: 5813 563e 2c3d b63d ba4a 663e 6fa3 303e
0.108760595 0.027923789 0.04988399 0.039079502 0.10600125 -0.042348508 -0.03822621 0.17742686
0.0027774137 0.05983674 -0.03864827 -0.033383466 0.010838016 -0.0079802945 0.06473042 -0.03944788
0.14642645 0.18117458 0.02167414 0.060326822 -0.018313669 0.032539427 -8.8864945e-05 0.20265073
0.044920594 0.09215646 0.1674946 0.17365818 -0.022024082 0.19592187 0.16441414 0.176797
0.20905817 0.08898386 0.22489443 0.17249845
