model_saved/olympics-curling/ppo/run1/trained_model/critic_1000.pth (torch, 232415 bytes, 3 tensors)

linear_in.weight f4 [64, 900]
0	0xbebb0f2b	-0.3653501
1	0xbe8871ec	-0.26649415
2	0xbe88c27b	-0.26710877
3	0x3db9065a	0.090344146
4	0x3edfd06b	0.43713698
5	0x3e9b54d5	0.3033816
6	0x3ea918e5	0.33026806
7	0x3cbb20be	0.022842761
8	0xbe15a6b3	-0.14614372
9	0xbe05db07	-0.13071834
10	0x3e3d856d	0.18507929
11	0xbdb44368	-0.08801919
12	0xbdf8d762	-0.12150456
13	0xbd2668f7	-0.040627446
14	0x3d08b4ab	0.033375423
15	0x3c9e8f46	0.019355427
16	0xbe2c414a	-0.16821781
17	0xbe9e87e6	-0.30963057
18	0xbe367d6c	-0.17821282
19	0xbd93cc19	-0.07216663
20	0xbe457bb1	-0.19285466
21	0xbe77117b	-0.24127762
22	0xbd04d677	-0.032431092
23	0x3a977d8a	0.0011557799
24	0x3dc4e1f8	0.096134126
25	0x3d500914	0.050789908
26	0xbe7ba2d1	-0.24573828
27	0xbe3ea78b	-0.186186
28	0xbc69315f	-0.014232962
29	0xbd726305	-0.059176464
30	0x3e893aa9	0.26802567
31	0xbe6a6f40	-0.22894001
32	0xbe38fc42	-0.18064979
33	0xbd841f79	-0.064513154
34	0x3a70fa02	0.00091925275
35	0x3d2d6ead	0.042341877
36	0x3e9c9377	0.30581257
37	0x3ea30b17	0.31844398
38	0xbd653836	-0.05596181
39	0x3e1d4459	0.15358104
40	0x3db9813f	0.09057855
41	0x3cf284e1	0.029604377
42	0x3e52728f	0.20551513
43	0x3e598639	0.21242608
44	0x3c928d43	0.017889624
45	0x3e831a2b	0.25605902
46	0x3d3efa9f	0.04662573
47	0xb8de2bfa	-0.00010593976
48	0x3d366246	0.044527315
49	0xbe849ea5	-0.25902286
50	0x3b7198f4	0.0036864849
51	0xbe45c588	-0.19313633
52	0x3ea86a47	0.32893583
53	0x3eaf0a42	0.34187514
54	0xbe7c716f	-0.24652646
55	0xbe0fe83a	-0.14053431
56	0x3dcc7129	0.09982521
57	0xbdf01641	-0.117229946
58	0x3cbf6612	0.0233641
59	0xbe4553e5	-0.19270284
60	0x3e70fcc0	0.23533916
61	0xbe0bd7c4	-0.13656527
62	0xbe88a84f	-0.2669091
63	0x3e2c25ca	0.1681129
64	0xbdfc27b4	-0.1231226
65	0x3d5b1cea	0.05349437
66	0x3eaf590e	0.3424763
67	0x3e97c445	0.2964193
68	0x3eee2dc6	0.46519297
69	0x3eadc5bc	0.33939922
70	0x3e06f504	0.13179404
71	0x3e2e9289	0.17048086
72	0x3e1eb9e8	0.15500605
73	0x3e07c237	0.13257681
74	0x3e983d81	0.29734424
75	0x3e83fd6b	0.2577928
76	0x3dca7246	0.09885077
77	0x3e23865f	0.15969227
78	0x3d2fa901	0.042885784
79	0xbe0c4919	-0.1369976
80	0xbc96ccec	-0.018408261
81	0x3e0c84a6	0.13722476
82	0x3e9e6c54	0.30942023
83	0x3e6e9872	0.23300341
84	0xbe092e6e	-0.13396618
85	0x3cf2038a	0.029542703
86	0xbd7f0dc9	-0.062269006
87	0x3d909464	0.07059553
88	0x3d920ef0	0.07131755
89	0x3ddd13d4	0.107947975
90	0x3eb6feb8	0.3574121
91	0xbd5117a3	-0.051047932
92	0xbe385013	-0.17999296
93	0x3dacccad	0.08437476
94	0xbe188e7f	-0.14898108
95	0xbcca6303	-0.024705416
96	0x3e1c08bd	0.15237708
97	0x3e98e45f	0.29861733
98	0x3ec2118f	0.3790402
99	0x3e3bf3c6	0.18354711
100	0x3e9d44ac	0.30716455
101	0x3ebdaa28	0.3704388
102	0x3e0067b9	0.12539567
103	0x3e290618	0.16506231
104	0x3e25a2cd	0.16175385
105	0x3ea3f791	0.32024816
106	0xbe194c13	-0.14970426
107	0xbd1d6fd5	-0.03843673
108	0x3d91b27c	0.07114121
109	0xbd9fafea	-0.07797225
110	0x3ebb6d07	0.3660662
111	0x3e189318	0.14899862
112	0x3e96f752	0.29485565
113	0x3e7803c4	0.24220186
114	0xbdeaf097	-0.1147167
115	0xbe94e769	-0.29082802
116	0xbcd96390	-0.026536733
117	0x3c847d79	0.016173111
118	0x3df978e0	0.12181258
119	0x3ea12fb9	0.31481722
120	0x3e1cbac4	0.1530562
121	0xbe6157f8	-0.22006214
122	0x3dc5c784	0.09657195
123	0x3e9cb8a5	0.30609623
124	0x3df99271	0.121861346
125	0x3e857de1	0.260726
126	0x3d6906dc	0.056891307
127	0x3d6b0a54	0.057382897
128	0x3e2ca5b6	0.16860089
129	0x3de6ea36	0.11275141
130	0x3e697dd6	0.22801909
131	0x3ebead68	0.37241673
132	0x3e119b4c	0.14219397
133	0x3e4519ed	0.19248171
134	0x3ddf4379	0.10901541
135	0x3ed7b951	0.42133573
136	0x3eecc708	0.462456
137	0x3e84617a	0.2585562
138	0x3e191fed	0.14953585
139	0x3e938910	0.28815508
140	0x3e3b73ce	0.18305895
141	0x3ed127c3	0.40850648
142	0x3ce11671	0.027476521
143	0x3e9be707	0.30449697
144	0x3dba2b5f	0.09090304
145	0xbe942fec	-0.2894281
146	0x3c3558fb	0.011068578
147	0x3d52f098	0.05149898
148	0x3e0664e2	0.13124421
149	0x3de8181c	0.113327235
150	0xbcbbfa66	-0.022946548
151	0xbdd21ed5	-0.10259787
152	0x3ebf4267	0.37355348
153	0x3eb4522d	0.35218945
154	0x3e0f52a6	0.13996372
155	0x3e3f35f6	0.18672928
156	0x3e91ea73	0.28499183
157	0x3e428ff8	0.19000232
158	0x3cf2fcf6	0.029661637
159	0x3e089d9c	0.13341373
160	0x3efa6aeb	0.48909697
161	0x3e141730	0.1446197
162	0x3e4f5eec	0.20251054
163	0x3d8cb103	0.068697
164	0x3dfd068c	0.12354764
165	0x3e879ed5	0.26488367
166	0x3eb179d2	0.34663254
167	0x3e789bd4	0.24278194
168	0x3ee520cb	0.44751582
169	0x3f094a6c	0.53629184
170	0x3f0a8080	0.54102325
171	0x3ee42f22	0.4456721
172	0x3ed8bee0	0.42333126
173	0x3e93420d	0.2876133
174	0x3e1dd16a	0.15411916
175	0x3d9f5acd	0.07780991
176	0xbe8aef61	-0.27135757
177	0x3c3adf12	0.011405723
178	0xbebcce8a	-0.36876327
179	0x3c303980	0.010755897
180	0x3e72cf5f	0.23711918
181	0x3ea2b6f1	0.31780198
182	0x3ec08102	0.37598425
183	0x3e75ba27	0.23996793
184	0x3e2afe74	0.16698629
185	0x3e07fb85	0.13279541
186	0x3d10fe25	0.03539862
187	0x3e3c6902	0.18399432
188	0x3d004e02	0.031324394
189	0x3f24bc00	0.64349365
190	0x3f0d2dad	0.5514782
191	0x3e67c855	0.22635014
192	0x3e410490	0.18849397
193	0x3edc0c6b	0.42978224
194	0x3e0e02b8	0.13868225
195	0x3e3e7dc2	0.1860266
196	0x3eb1e3ac	0.34744012
197	0x3e63851b	0.22218744
198	0x3ed92b1c	0.42415702
199	0x3ef984b9	0.48734072
200	0x3ed4a526	0.41532248
201	0x3f2e0496	0.6797575
202	0x3e0553b3	0.1302021
203	0x3dcbbedd	0.09948514
204	0x3e825d08	0.25461602
205	0x3df382a6	0.118901536
206	0xbe581671	-0.2110231
207	0x3d982eae	0.074307784
208	0xbcc743bb	-0.024324289
209	0x3e9351ce	0.2877335
210	0x3e9f79f0	0.31147718
211	0x3e4f3c84	0.20237929
212	0x3f12451e	0.57136714
213	0x3ecd81c1	0.40138057
214	0x3e4ad4be	0.19807717
215	0x3e10c135	0.14136203
216	0x3de12e5e	0.10995172
217	0x3e19d866	0.15023956
218	0x3e9265c2	0.2859326
219	0x3efef420	0.49795628
220	0x3f0bc3fe	0.54595935
221	0x3eba8969	0.3643296
222	0x3ee8f012	0.4549566
223	0x3ef1c00e	0.4721684
224	0x3ebb3523	0.36563978
225	0x3e6bebd6	0.23039183
226	0x3e40e1c9	0.1883613
227	0x3f29677b	0.66173524
228	0x3eddbd7d	0.4330863
229	0x3eb3bd66	0.35105437
230	0x3ef4e811	0.47833303
231	0x3ea54b5e	0.32284063
232	0x3f066a1c	0.5250566
233	0x3edc9f69	0.4309037
234	0x3f00056a	0.5000826
235	0x3eb6a047	0.35669157
236	0x3e8da1e3	0.27662572
237	0x3dae5b4b	0.085135065
238	0x3e8c8d6f	0.27451655
239	0x3ec58c72	0.38583714
240	0x3f0de038	0.55420256
241	0x3ecb721d	0.397355
242	0x3eb23c4b	0.34811625
243	0x3ed5601f	0.41674897
244	0x3e5158c2	0.20444015
245	0x3d5e2cc3	0.054241907
246	0x3dc58326	0.09644155
247	0x3e80eca9	0.25180557
248	0x3f016725	0.5054801
249	0x3f07f205	0.5310367
250	0x3ef5d086	0.48010653
251	0x3f181531	0.59407336
252	0x3ec293f7	0.38003513
253	0x3ef101d7	0.47071716
254	0x3ec72c93	0.38901195
255	0x3ecbd9bc	0.39814556

linear_in.bias f4 [64]
0	0xc0f723f7	-7.7231402
1	0x410ba086	8.72669
2	0x410b8a8e	8.721327
3	0xc0f77c27	-7.7339053
4	0xc0f799a9	-7.7375073
5	0xc0f85b56	-7.7611494
6	0xc0f732f7	-7.7249713
7	0x410d9b69	8.850442
8	0x410a64b4	8.649586
9	0x4109ad5f	8.604827
10	0x410b9578	8.723991
11	0x410d70ff	8.840087
12	0x410bb153	8.730792
13	0x410c1307	8.754645
14	0x410da66f	8.853133
15	0x410b51d1	8.707475
16	0x410d26dc	8.821987
17	0xc0f7d82e	-7.745139
18	0xc0f65bc0	-7.6987
19	0xc0f7d5e3	-7.744859
20	0x410de0f4	8.86742
21	0xc0f7a93c	-7.7394085
22	0x410b6e5e	8.714445
23	0x410c264b	8.759349
24	0x410aec64	8.682713
25	0x410cb2e8	8.793678
26	0xc0f75e8f	-7.730293
27	0x40fd00b7	7.9063373
28	0x410b4e0b	8.706553
29	0x410af420	8.684601
30	0xc0f7486c	-7.7275906
31	0x410b9d66	8.725927
32	0x410e6151	8.898759
33	0x410d585e	8.834074
34	0x410cb854	8.795002
35	0x410af39d	8.684476
36	0xc0f80452	-7.7505274
37	0x410b4ce8	8.706276
38	0x410bd06e	8.738386
39	0x3fcf691d	1.6203953
40	0xc0f7c881	-7.7432256
41	0x410a703c	8.652401
42	0xc0f78c06	-7.7358427
43	0xc0f84e25	-7.759539
44	0xc0f8232c	-7.7542934
45	0x410c26fc	8.759518
46	0x410b6351	8.711747
47	0x410a52b6	8.645193
48	0xc0f6d8eb	-7.7139792
49	0x410b2aa0	8.6979065
50	0x410b6d50	8.714188
51	0x3fd0fb99	1.6326782
52	0x3fc4d610	1.5377827
53	0xc0f6d973	-7.714044
54	0xc0f69d78	-7.7067223
55	0x410d947e	8.848753
56	0x410c9366	8.785986
57	0xc0f7c013	-7.7421966
58	0x410a684c	8.650463
59	0x410b211f	8.695586
60	0x410d789d	8.841947
61	0x410d4d28	8.831337
62	0x410b50e6	8.707251
63	0xc0f778c1	-7.7334905

state_value.weight f4 [1, 64]
0	0x3fdcb7a0	1.7243538
1	0xbfbb743c	-1.4644847
2	0xbfc8c462	-1.5684931
3	0x3fe4e811	1.7883321
4	0x3fdda452	1.7315772
5	0x3fdb93ac	1.7154441
6	0x3fddf7b1	1.7341214
7	0xbfa54646	-1.2912071
8	0xbfcd5c91	-1.6043874
9	0xbfd005f6	-1.6251819
10	0xbfbf999d	-1.4968754
11	0xbf9d961b	-1.2311434
12	0xbfba1f00	-1.454071
13	0xbfba02f0	-1.4532146
14	0xbf985f17	-1.1904019
15	0xbfcf968d	-1.621782
16	0xbfa26ff9	-1.2690421
17	0x3fd8a98c	1.6926742
18	0x3fde1f58	1.7353315
19	0x3fda6837	1.7063054
20	0xbfa19363	-1.2623104
21	0x3fdb457a	1.7130578
22	0xbfbb3cdf	-1.4627951
23	0xbfbc7616	-1.4723537
24	0xbfce87bf	-1.6135176
25	0xbfb278a2	-1.3943064
26	0x3fdd37af	1.7282618
27	0xc0d4f98c	-6.6554623
28	0xbfc41416	-1.531863
29	0xbfb07150	-1.378458
30	0x3fdefdb5	1.7421175
31	0xbfa9255f	-1.321453
32	0xbf9c31ad	-1.220266
33	0xbfa10614	-1.257998
34	0xbfa9c4a9	-1.3263141
35	0xbfd0b827	-1.6306199
36	0x3fe56ab8	1.7923193
37	0xbfc963b5	-1.5733553
38	0xbfb490c1	-1.4106675
39	0xbfd81a32	-1.6882994
40	0x3fd58fa5	1.6684462
41	0xbfcf8537	-1.6212529
42	0x3fd6070c	1.67209
43	0x3fde831a	1.7383759
44	0x3fdf3cad	1.7440392
45	0xbfbee003	-1.4912113
46	0xbfbb000f	-1.4609393
47	0xbfce3053	-1.6108497
48	0x3fe67e74	1.800734
49	0xbfccc659	-1.5998031
50	0xbfc75782	-1.557358
51	0xbfd246da	-1.6427872
52	0xbfce2974	-1.61064
53	0x3fdbad7e	1.7162321
54	0x3fde16d5	1.7350718
55	0xbf9fcfc3	-1.2485279
56	0xbfa661ef	-1.2998637
57	0x3fdf2286	1.7432411
58	0xbfd30975	-1.6487261
59	0xbfcae2b1	-1.5850431
60	0xbfa3e224	-1.2803388
61	0xbfa33ea9	-1.2753497
62	0xbfc6e7e6	-1.553952
63	0x3fd752ff	1.6822203
